{"format": "layers-model", "generatedBy": "keras v2.8.0", "convertedBy": "TensorFlow.js Converter v3.18.0", "modelTopology": {"keras_version": "2.8.0", "backend": "tensorflow", "model_config": {"class_name": "Functional", "config": {"name": "model_12", "layers": [{"class_name": "InputLayer", "config": {"batch_input_shape": [null, 128, 128, 3], "dtype": "float32", "sparse": false, "ragged": false, "name": "input_8"}, "name": "input_8", "inbound_nodes": []}, {"class_name": "Conv2D", "config": {"name": "conv1", "trainable": true, "dtype": "float32", "filters": 32, "kernel_size": [3, 3], "strides": [2, 2], "padding": "same", "data_format": "channels_last", "dilation_rate": [1, 1], "groups": 1, "activation": "linear", "use_bias": false, "kernel_initializer": {"class_name": "GlorotUniform", "config": {"seed": null}}, "bias_initializer": {"class_name": "Zeros", "config": {}}, "kernel_regularizer": null, "bias_regularizer": null, "activity_regularizer": null, "kernel_constraint": null, "bias_constraint": null}, "name": "conv1", "inbound_nodes": [[["input_8", 0, 0, {}]]]}, {"class_name": "BatchNormalization", "config": {"name": "conv1_bn", "trainable": true, "dtype": "float32", "axis": [3], "momentum": 0.99, "epsilon": 0.001, "center": true, "scale": true, "beta_initializer": {"class_name": "Zeros", "config": {}}, "gamma_initializer": {"class_name": "Ones", "config": {}}, "moving_mean_initializer": {"class_name": "Zeros", "config": {}}, "moving_variance_initializer": {"class_name": "Ones", "config": {}}, "beta_regularizer": null, "gamma_regularizer": null, "beta_constraint": null, "gamma_constraint": null}, "name": "conv1_bn", "inbound_nodes": [[["conv1", 0, 0, {}]]]}, {"class_name": "ReLU", "config": {"name": "conv1_relu", "trainable": true, "dtype": "float32", "max_value": 6.0, "negative_slope": 0.0, "threshold": 0.0}, "name": "conv1_relu", "inbound_nodes": [[["conv1_bn", 0, 0, {}]]]}, {"class_name": "DepthwiseConv2D", "config": {"name": "conv_dw_1", "trainable": true, "dtype": "float32", "kernel_size": [3, 3], "strides": [1, 1], "padding": "same", "data_format": "channels_last", "dilation_rate": [1, 1], "groups": 1, "activation": "linear", "use_bias": false, "bias_initializer": {"class_name": "Zeros", "config": {}}, "bias_regularizer": null, "activity_regularizer": null, "bias_constraint": null, "depth_multiplier": 1, "depthwise_initializer": {"class_name": "GlorotUniform", "config": {"seed": null}}, "depthwise_regularizer": null, "depthwise_constraint": null}, "name": "conv_dw_1", "inbound_nodes": [[["conv1_relu", 0, 0, {}]]]}, {"class_name": "BatchNormalization", "config": {"name": "conv_dw_1_bn", "trainable": true, "dtype": "float32", "axis": [3], "momentum": 0.99, "epsilon": 0.001, "center": true, "scale": true, "beta_initializer": {"class_name": "Zeros", "config": {}}, "gamma_initializer": {"class_name": "Ones", "config": {}}, "moving_mean_initializer": {"class_name": "Zeros", "config": {}}, "moving_variance_initializer": {"class_name": "Ones", "config": {}}, "beta_regularizer": null, "gamma_regularizer": null, "beta_constraint": null, "gamma_constraint": null}, "name": "conv_dw_1_bn", "inbound_nodes": [[["conv_dw_1", 0, 0, {}]]]}, {"class_name": "ReLU", "config": {"name": "conv_dw_1_relu", "trainable": true, "dtype": "float32", "max_value": 6.0, "negative_slope": 0.0, "threshold": 0.0}, "name": "conv_dw_1_relu", "inbound_nodes": [[["conv_dw_1_bn", 0, 0, {}]]]}, {"class_name": "Conv2D", "config": {"name": "conv_pw_1", "trainable": true, "dtype": "float32", "filters": 64, "kernel_size": [1, 1], "strides": [1, 1], "padding": "same", "data_format": "channels_last", "dilation_rate": [1, 1], "groups": 1, "activation": "linear", "use_bias": false, "kernel_initializer": {"class_name": "GlorotUniform", "config": {"seed": null}}, "bias_initializer": {"class_name": "Zeros", "config": {}}, "kernel_regularizer": null, "bias_regularizer": null, "activity_regularizer": null, "kernel_constraint": null, "bias_constraint": null}, "name": "conv_pw_1", "inbound_nodes": [[["conv_dw_1_relu", 0, 0, {}]]]}, {"class_name": "BatchNormalization", "config": {"name": "conv_pw_1_bn", "trainable": true, "dtype": "float32", "axis": [3], "momentum": 0.99, "epsilon": 0.001, "center": true, "scale": true, "beta_initializer": {"class_name": "Zeros", "config": {}}, "gamma_initializer": {"class_name": "Ones", "config": {}}, "moving_mean_initializer": {"class_name": "Zeros", "config": {}}, "moving_variance_initializer": {"class_name": "Ones", "config": {}}, "beta_regularizer": null, "gamma_regularizer": null, "beta_constraint": null, "gamma_constraint": null}, "name": "conv_pw_1_bn", "inbound_nodes": [[["conv_pw_1", 0, 0, {}]]]}, {"class_name": "ReLU", "config": {"name": "conv_pw_1_relu", "trainable": true, "dtype": "float32", "max_value": 6.0, "negative_slope": 0.0, "threshold": 0.0}, "name": "conv_pw_1_relu", "inbound_nodes": [[["conv_pw_1_bn", 0, 0, {}]]]}, {"class_name": "ZeroPadding2D", "config": {"name": "conv_pad_2", "trainable": true, "dtype": "float32", "padding": [[0, 1], [0, 1]], "data_format": "channels_last"}, "name": "conv_pad_2", "inbound_nodes": [[["conv_pw_1_relu", 0, 0, {}]]]}, {"class_name": "DepthwiseConv2D", "config": {"name": "conv_dw_2", "trainable": true, "dtype": "float32", "kernel_size": [3, 3], "strides": [2, 2], "padding": "valid", "data_format": "channels_last", "dilation_rate": [1, 1], "groups": 1, "activation": "linear", "use_bias": false, "bias_initializer": {"class_name": "Zeros", "config": {}}, "bias_regularizer": null, "activity_regularizer": null, "bias_constraint": null, "depth_multiplier": 1, "depthwise_initializer": {"class_name": "GlorotUniform", "config": {"seed": null}}, "depthwise_regularizer": null, "depthwise_constraint": null}, "name": "conv_dw_2", "inbound_nodes": [[["conv_pad_2", 0, 0, {}]]]}, {"class_name": "BatchNormalization", "config": {"name": "conv_dw_2_bn", "trainable": true, "dtype": "float32", "axis": [3], "momentum": 0.99, "epsilon": 0.001, "center": true, "scale": true, "beta_initializer": {"class_name": "Zeros", "config": {}}, "gamma_initializer": {"class_name": "Ones", "config": {}}, "moving_mean_initializer": {"class_name": "Zeros", "config": {}}, "moving_variance_initializer": {"class_name": "Ones", "config": {}}, "beta_regularizer": null, "gamma_regularizer": null, "beta_constraint": null, "gamma_constraint": null}, "name": "conv_dw_2_bn", "inbound_nodes": [[["conv_dw_2", 0, 0, {}]]]}, {"class_name": "ReLU", "config": {"name": "conv_dw_2_relu", "trainable": true, "dtype": "float32", "max_value": 6.0, "negative_slope": 0.0, "threshold": 0.0}, "name": "conv_dw_2_relu", "inbound_nodes": [[["conv_dw_2_bn", 0, 0, {}]]]}, {"class_name": "Conv2D", "config": {"name": "conv_pw_2", "trainable": true, "dtype": "float32", "filters": 128, "kernel_size": [1, 1], "strides": [1, 1], "padding": "same", "data_format": "channels_last", "dilation_rate": [1, 1], "groups": 1, "activation": "linear", "use_bias": false, "kernel_initializer": {"class_name": "GlorotUniform", "config": {"seed": null}}, "bias_initializer": {"class_name": "Zeros", "config": {}}, "kernel_regularizer": null, "bias_regularizer": null, "activity_regularizer": null, "kernel_constraint": null, "bias_constraint": null}, "name": "conv_pw_2", "inbound_nodes": [[["conv_dw_2_relu", 0, 0, {}]]]}, {"class_name": "BatchNormalization", "config": {"name": "conv_pw_2_bn", "trainable": true, "dtype": "float32", "axis": [3], "momentum": 0.99, "epsilon": 0.001, "center": true, "scale": true, "beta_initializer": {"class_name": "Zeros", "config": {}}, "gamma_initializer": {"class_name": "Ones", "config": {}}, "moving_mean_initializer": {"class_name": "Zeros", "config": {}}, "moving_variance_initializer": {"class_name": "Ones", "config": {}}, "beta_regularizer": null, "gamma_regularizer": null, "beta_constraint": null, "gamma_constraint": null}, "name": "conv_pw_2_bn", "inbound_nodes": [[["conv_pw_2", 0, 0, {}]]]}, {"class_name": "ReLU", "config": {"name": "conv_pw_2_relu", "trainable": true, "dtype": "float32", "max_value": 6.0, "negative_slope": 0.0, "threshold": 0.0}, "name": "conv_pw_2_relu", "inbound_nodes": [[["conv_pw_2_bn", 0, 0, {}]]]}, {"class_name": "DepthwiseConv2D", "config": {"name": "conv_dw_3", "trainable": true, "dtype": "float32", "kernel_size": [3, 3], "strides": [1, 1], "padding": "same", "data_format": "channels_last", "dilation_rate": [1, 1], "groups": 1, "activation": "linear", "use_bias": false, "bias_initializer": {"class_name": "Zeros", "config": {}}, "bias_regularizer": null, "activity_regularizer": null, "bias_constraint": null, "depth_multiplier": 1, "depthwise_initializer": {"class_name": "GlorotUniform", "config": {"seed": null}}, "depthwise_regularizer": null, "depthwise_constraint": null}, "name": "conv_dw_3", "inbound_nodes": [[["conv_pw_2_relu", 0, 0, {}]]]}, {"class_name": "BatchNormalization", "config": {"name": "conv_dw_3_bn", "trainable": true, "dtype": "float32", "axis": [3], "momentum": 0.99, "epsilon": 0.001, "center": true, "scale": true, "beta_initializer": {"class_name": "Zeros", "config": {}}, "gamma_initializer": {"class_name": "Ones", "config": {}}, "moving_mean_initializer": {"class_name": "Zeros", "config": {}}, "moving_variance_initializer": {"class_name": "Ones", "config": {}}, "beta_regularizer": null, "gamma_regularizer": null, "beta_constraint": null, "gamma_constraint": null}, "name": "conv_dw_3_bn", "inbound_nodes": [[["conv_dw_3", 0, 0, {}]]]}, {"class_name": "ReLU", "config": {"name": "conv_dw_3_relu", "trainable": true, "dtype": "float32", "max_value": 6.0, "negative_slope": 0.0, "threshold": 0.0}, "name": "conv_dw_3_relu", "inbound_nodes": [[["conv_dw_3_bn", 0, 0, {}]]]}, {"class_name": "Conv2D", "config": {"name": "conv_pw_3", "trainable": true, "dtype": "float32", "filters": 128, "kernel_size": [1, 1], "strides": [1, 1], "padding": "same", "data_format": "channels_last", "dilation_rate": [1, 1], "groups": 1, "activation": "linear", "use_bias": false, "kernel_initializer": {"class_name": "GlorotUniform", "config": {"seed": null}}, "bias_initializer": {"class_name": "Zeros", "config": {}}, "kernel_regularizer": null, "bias_regularizer": null, "activity_regularizer": null, "kernel_constraint": null, "bias_constraint": null}, "name": "conv_pw_3", "inbound_nodes": [[["conv_dw_3_relu", 0, 0, {}]]]}, {"class_name": "BatchNormalization", "config": {"name": "conv_pw_3_bn", "trainable": true, "dtype": "float32", "axis": [3], "momentum": 0.99, "epsilon": 0.001, "center": true, "scale": true, "beta_initializer": {"class_name": "Zeros", "config": {}}, "gamma_initializer": {"class_name": "Ones", "config": {}}, "moving_mean_initializer": {"class_name": "Zeros", "config": {}}, "moving_variance_initializer": {"class_name": "Ones", "config": {}}, "beta_regularizer": null, "gamma_regularizer": null, "beta_constraint": null, "gamma_constraint": null}, "name": "conv_pw_3_bn", "inbound_nodes": [[["conv_pw_3", 0, 0, {}]]]}, {"class_name": "ReLU", "config": {"name": "conv_pw_3_relu", "trainable": true, "dtype": "float32", "max_value": 6.0, "negative_slope": 0.0, "threshold": 0.0}, "name": "conv_pw_3_relu", "inbound_nodes": [[["conv_pw_3_bn", 0, 0, {}]]]}, {"class_name": "ZeroPadding2D", "config": {"name": "conv_pad_4", "trainable": true, "dtype": "float32", "padding": [[0, 1], [0, 1]], "data_format": "channels_last"}, "name": "conv_pad_4", "inbound_nodes": [[["conv_pw_3_relu", 0, 0, {}]]]}, {"class_name": "DepthwiseConv2D", "config": {"name": "conv_dw_4", "trainable": true, "dtype": "float32", "kernel_size": [3, 3], "strides": [2, 2], "padding": "valid", "data_format": "channels_last", "dilation_rate": [1, 1], "groups": 1, "activation": "linear", "use_bias": false, "bias_initializer": {"class_name": "Zeros", "config": {}}, "bias_regularizer": null, "activity_regularizer": null, "bias_constraint": null, "depth_multiplier": 1, "depthwise_initializer": {"class_name": "GlorotUniform", "config": {"seed": null}}, "depthwise_regularizer": null, "depthwise_constraint": null}, "name": "conv_dw_4", "inbound_nodes": [[["conv_pad_4", 0, 0, {}]]]}, {"class_name": "BatchNormalization", "config": {"name": "conv_dw_4_bn", "trainable": true, "dtype": "float32", "axis": [3], "momentum": 0.99, "epsilon": 0.001, "center": true, "scale": true, "beta_initializer": {"class_name": "Zeros", "config": {}}, "gamma_initializer": {"class_name": "Ones", "config": {}}, "moving_mean_initializer": {"class_name": "Zeros", "config": {}}, "moving_variance_initializer": {"class_name": "Ones", "config": {}}, "beta_regularizer": null, "gamma_regularizer": null, "beta_constraint": null, "gamma_constraint": null}, "name": "conv_dw_4_bn", "inbound_nodes": [[["conv_dw_4", 0, 0, {}]]]}, {"class_name": "ReLU", "config": {"name": "conv_dw_4_relu", "trainable": true, "dtype": "float32", "max_value": 6.0, "negative_slope": 0.0, "threshold": 0.0}, "name": "conv_dw_4_relu", "inbound_nodes": [[["conv_dw_4_bn", 0, 0, {}]]]}, {"class_name": "Conv2D", "config": {"name": "conv_pw_4", "trainable": true, "dtype": "float32", "filters": 256, "kernel_size": [1, 1], "strides": [1, 1], "padding": "same", "data_format": "channels_last", "dilation_rate": [1, 1], "groups": 1, "activation": "linear", "use_bias": false, "kernel_initializer": {"class_name": "GlorotUniform", "config": {"seed": null}}, "bias_initializer": {"class_name": "Zeros", "config": {}}, "kernel_regularizer": null, "bias_regularizer": null, "activity_regularizer": null, "kernel_constraint": null, "bias_constraint": null}, "name": "conv_pw_4", "inbound_nodes": [[["conv_dw_4_relu", 0, 0, {}]]]}, {"class_name": "BatchNormalization", "config": {"name": "conv_pw_4_bn", "trainable": true, "dtype": "float32", "axis": [3], "momentum": 0.99, "epsilon": 0.001, "center": true, "scale": true, "beta_initializer": {"class_name": "Zeros", "config": {}}, "gamma_initializer": {"class_name": "Ones", "config": {}}, "moving_mean_initializer": {"class_name": "Zeros", "config": {}}, "moving_variance_initializer": {"class_name": "Ones", "config": {}}, "beta_regularizer": null, "gamma_regularizer": null, "beta_constraint": null, "gamma_constraint": null}, "name": "conv_pw_4_bn", "inbound_nodes": [[["conv_pw_4", 0, 0, {}]]]}, {"class_name": "ReLU", "config": {"name": "conv_pw_4_relu", "trainable": true, "dtype": "float32", "max_value": 6.0, "negative_slope": 0.0, "threshold": 0.0}, "name": "conv_pw_4_relu", "inbound_nodes": [[["conv_pw_4_bn", 0, 0, {}]]]}, {"class_name": "DepthwiseConv2D", "config": {"name": "conv_dw_5", "trainable": true, "dtype": "float32", "kernel_size": [3, 3], "strides": [1, 1], "padding": "same", "data_format": "channels_last", "dilation_rate": [1, 1], "groups": 1, "activation": "linear", "use_bias": false, "bias_initializer": {"class_name": "Zeros", "config": {}}, "bias_regularizer": null, "activity_regularizer": null, "bias_constraint": null, "depth_multiplier": 1, "depthwise_initializer": {"class_name": "GlorotUniform", "config": {"seed": null}}, "depthwise_regularizer": null, "depthwise_constraint": null}, "name": "conv_dw_5", "inbound_nodes": [[["conv_pw_4_relu", 0, 0, {}]]]}, {"class_name": "BatchNormalization", "config": {"name": "conv_dw_5_bn", "trainable": true, "dtype": "float32", "axis": [3], "momentum": 0.99, "epsilon": 0.001, "center": true, "scale": true, "beta_initializer": {"class_name": "Zeros", "config": {}}, "gamma_initializer": {"class_name": "Ones", "config": {}}, "moving_mean_initializer": {"class_name": "Zeros", "config": {}}, "moving_variance_initializer": {"class_name": "Ones", "config": {}}, "beta_regularizer": null, "gamma_regularizer": null, "beta_constraint": null, "gamma_constraint": null}, "name": "conv_dw_5_bn", "inbound_nodes": [[["conv_dw_5", 0, 0, {}]]]}, {"class_name": "ReLU", "config": {"name": "conv_dw_5_relu", "trainable": true, "dtype": "float32", "max_value": 6.0, "negative_slope": 0.0, "threshold": 0.0}, "name": "conv_dw_5_relu", "inbound_nodes": [[["conv_dw_5_bn", 0, 0, {}]]]}, {"class_name": "Conv2D", "config": {"name": "conv_pw_5", "trainable": true, "dtype": "float32", "filters": 256, "kernel_size": [1, 1], "strides": [1, 1], "padding": "same", "data_format": "channels_last", "dilation_rate": [1, 1], "groups": 1, "activation": "linear", "use_bias": false, "kernel_initializer": {"class_name": "GlorotUniform", "config": {"seed": null}}, "bias_initializer": {"class_name": "Zeros", "config": {}}, "kernel_regularizer": null, "bias_regularizer": null, "activity_regularizer": null, "kernel_constraint": null, "bias_constraint": null}, "name": "conv_pw_5", "inbound_nodes": [[["conv_dw_5_relu", 0, 0, {}]]]}, {"class_name": "BatchNormalization", "config": {"name": "conv_pw_5_bn", "trainable": true, "dtype": "float32", "axis": [3], "momentum": 0.99, "epsilon": 0.001, "center": true, "scale": true, "beta_initializer": {"class_name": "Zeros", "config": {}}, "gamma_initializer": {"class_name": "Ones", "config": {}}, "moving_mean_initializer": {"class_name": "Zeros", "config": {}}, "moving_variance_initializer": {"class_name": "Ones", "config": {}}, "beta_regularizer": null, "gamma_regularizer": null, "beta_constraint": null, "gamma_constraint": null}, "name": "conv_pw_5_bn", "inbound_nodes": [[["conv_pw_5", 0, 0, {}]]]}, {"class_name": "ReLU", "config": {"name": "conv_pw_5_relu", "trainable": true, "dtype": "float32", "max_value": 6.0, "negative_slope": 0.0, "threshold": 0.0}, "name": "conv_pw_5_relu", "inbound_nodes": [[["conv_pw_5_bn", 0, 0, {}]]]}, {"class_name": "ZeroPadding2D", "config": {"name": "conv_pad_6", "trainable": true, "dtype": "float32", "padding": [[0, 1], [0, 1]], "data_format": "channels_last"}, "name": "conv_pad_6", "inbound_nodes": [[["conv_pw_5_relu", 0, 0, {}]]]}, {"class_name": "DepthwiseConv2D", "config": {"name": "conv_dw_6", "trainable": true, "dtype": "float32", "kernel_size": [3, 3], "strides": [2, 2], "padding": "valid", "data_format": "channels_last", "dilation_rate": [1, 1], "groups": 1, "activation": "linear", "use_bias": false, "bias_initializer": {"class_name": "Zeros", "config": {}}, "bias_regularizer": null, "activity_regularizer": null, "bias_constraint": null, "depth_multiplier": 1, "depthwise_initializer": {"class_name": "GlorotUniform", "config": {"seed": null}}, "depthwise_regularizer": null, "depthwise_constraint": null}, "name": "conv_dw_6", "inbound_nodes": [[["conv_pad_6", 0, 0, {}]]]}, {"class_name": "BatchNormalization", "config": {"name": "conv_dw_6_bn", "trainable": true, "dtype": "float32", "axis": [3], "momentum": 0.99, "epsilon": 0.001, "center": true, "scale": true, "beta_initializer": {"class_name": "Zeros", "config": {}}, "gamma_initializer": {"class_name": "Ones", "config": {}}, "moving_mean_initializer": {"class_name": "Zeros", "config": {}}, "moving_variance_initializer": {"class_name": "Ones", "config": {}}, "beta_regularizer": null, "gamma_regularizer": null, "beta_constraint": null, "gamma_constraint": null}, "name": "conv_dw_6_bn", "inbound_nodes": [[["conv_dw_6", 0, 0, {}]]]}, {"class_name": "ReLU", "config": {"name": "conv_dw_6_relu", "trainable": true, "dtype": "float32", "max_value": 6.0, "negative_slope": 0.0, "threshold": 0.0}, "name": "conv_dw_6_relu", "inbound_nodes": [[["conv_dw_6_bn", 0, 0, {}]]]}, {"class_name": "Conv2D", "config": {"name": "conv_pw_6", "trainable": true, "dtype": "float32", "filters": 512, "kernel_size": [1, 1], "strides": [1, 1], "padding": "same", "data_format": "channels_last", "dilation_rate": [1, 1], "groups": 1, "activation": "linear", "use_bias": false, "kernel_initializer": {"class_name": "GlorotUniform", "config": {"seed": null}}, "bias_initializer": {"class_name": "Zeros", "config": {}}, "kernel_regularizer": null, "bias_regularizer": null, "activity_regularizer": null, "kernel_constraint": null, "bias_constraint": null}, "name": "conv_pw_6", "inbound_nodes": [[["conv_dw_6_relu", 0, 0, {}]]]}, {"class_name": "BatchNormalization", "config": {"name": "conv_pw_6_bn", "trainable": true, "dtype": "float32", "axis": [3], "momentum": 0.99, "epsilon": 0.001, "center": true, "scale": true, "beta_initializer": {"class_name": "Zeros", "config": {}}, "gamma_initializer": {"class_name": "Ones", "config": {}}, "moving_mean_initializer": {"class_name": "Zeros", "config": {}}, "moving_variance_initializer": {"class_name": "Ones", "config": {}}, "beta_regularizer": null, "gamma_regularizer": null, "beta_constraint": null, "gamma_constraint": null}, "name": "conv_pw_6_bn", "inbound_nodes": [[["conv_pw_6", 0, 0, {}]]]}, {"class_name": "ReLU", "config": {"name": "conv_pw_6_relu", "trainable": true, "dtype": "float32", "max_value": 6.0, "negative_slope": 0.0, "threshold": 0.0}, "name": "conv_pw_6_relu", "inbound_nodes": [[["conv_pw_6_bn", 0, 0, {}]]]}, {"class_name": "DepthwiseConv2D", "config": {"name": "conv_dw_7", "trainable": true, "dtype": "float32", "kernel_size": [3, 3], "strides": [1, 1], "padding": "same", "data_format": "channels_last", "dilation_rate": [1, 1], "groups": 1, "activation": "linear", "use_bias": false, "bias_initializer": {"class_name": "Zeros", "config": {}}, "bias_regularizer": null, "activity_regularizer": null, "bias_constraint": null, "depth_multiplier": 1, "depthwise_initializer": {"class_name": "GlorotUniform", "config": {"seed": null}}, "depthwise_regularizer": null, "depthwise_constraint": null}, "name": "conv_dw_7", "inbound_nodes": [[["conv_pw_6_relu", 0, 0, {}]]]}, {"class_name": "BatchNormalization", "config": {"name": "conv_dw_7_bn", "trainable": true, "dtype": "float32", "axis": [3], "momentum": 0.99, "epsilon": 0.001, "center": true, "scale": true, "beta_initializer": {"class_name": "Zeros", "config": {}}, "gamma_initializer": {"class_name": "Ones", "config": {}}, "moving_mean_initializer": {"class_name": "Zeros", "config": {}}, "moving_variance_initializer": {"class_name": "Ones", "config": {}}, "beta_regularizer": null, "gamma_regularizer": null, "beta_constraint": null, "gamma_constraint": null}, "name": "conv_dw_7_bn", "inbound_nodes": [[["conv_dw_7", 0, 0, {}]]]}, {"class_name": "ReLU", "config": {"name": "conv_dw_7_relu", "trainable": true, "dtype": "float32", "max_value": 6.0, "negative_slope": 0.0, "threshold": 0.0}, "name": "conv_dw_7_relu", "inbound_nodes": [[["conv_dw_7_bn", 0, 0, {}]]]}, {"class_name": "Conv2D", "config": {"name": "conv_pw_7", "trainable": true, "dtype": "float32", "filters": 512, "kernel_size": [1, 1], "strides": [1, 1], "padding": "same", "data_format": "channels_last", "dilation_rate": [1, 1], "groups": 1, "activation": "linear", "use_bias": false, "kernel_initializer": {"class_name": "GlorotUniform", "config": {"seed": null}}, "bias_initializer": {"class_name": "Zeros", "config": {}}, "kernel_regularizer": null, "bias_regularizer": null, "activity_regularizer": null, "kernel_constraint": null, "bias_constraint": null}, "name": "conv_pw_7", "inbound_nodes": [[["conv_dw_7_relu", 0, 0, {}]]]}, {"class_name": "BatchNormalization", "config": {"name": "conv_pw_7_bn", "trainable": true, "dtype": "float32", "axis": [3], "momentum": 0.99, "epsilon": 0.001, "center": true, "scale": true, "beta_initializer": {"class_name": "Zeros", "config": {}}, "gamma_initializer": {"class_name": "Ones", "config": {}}, "moving_mean_initializer": {"class_name": "Zeros", "config": {}}, "moving_variance_initializer": {"class_name": "Ones", "config": {}}, "beta_regularizer": null, "gamma_regularizer": null, "beta_constraint": null, "gamma_constraint": null}, "name": "conv_pw_7_bn", "inbound_nodes": [[["conv_pw_7", 0, 0, {}]]]}, {"class_name": "ReLU", "config": {"name": "conv_pw_7_relu", "trainable": true, "dtype": "float32", "max_value": 6.0, "negative_slope": 0.0, "threshold": 0.0}, "name": "conv_pw_7_relu", "inbound_nodes": [[["conv_pw_7_bn", 0, 0, {}]]]}, {"class_name": "DepthwiseConv2D", "config": {"name": "conv_dw_8", "trainable": true, "dtype": "float32", "kernel_size": [3, 3], "strides": [1, 1], "padding": "same", "data_format": "channels_last", "dilation_rate": [1, 1], "groups": 1, "activation": "linear", "use_bias": false, "bias_initializer": {"class_name": "Zeros", "config": {}}, "bias_regularizer": null, "activity_regularizer": null, "bias_constraint": null, "depth_multiplier": 1, "depthwise_initializer": {"class_name": "GlorotUniform", "config": {"seed": null}}, "depthwise_regularizer": null, "depthwise_constraint": null}, "name": "conv_dw_8", "inbound_nodes": [[["conv_pw_7_relu", 0, 0, {}]]]}, {"class_name": "BatchNormalization", "config": {"name": "conv_dw_8_bn", "trainable": true, "dtype": "float32", "axis": [3], "momentum": 0.99, "epsilon": 0.001, "center": true, "scale": true, "beta_initializer": {"class_name": "Zeros", "config": {}}, "gamma_initializer": {"class_name": "Ones", "config": {}}, "moving_mean_initializer": {"class_name": "Zeros", "config": {}}, "moving_variance_initializer": {"class_name": "Ones", "config": {}}, "beta_regularizer": null, "gamma_regularizer": null, "beta_constraint": null, "gamma_constraint": null}, "name": "conv_dw_8_bn", "inbound_nodes": [[["conv_dw_8", 0, 0, {}]]]}, {"class_name": "ReLU", "config": {"name": "conv_dw_8_relu", "trainable": true, "dtype": "float32", "max_value": 6.0, "negative_slope": 0.0, "threshold": 0.0}, "name": "conv_dw_8_relu", "inbound_nodes": [[["conv_dw_8_bn", 0, 0, {}]]]}, {"class_name": "Conv2D", "config": {"name": "conv_pw_8", "trainable": true, "dtype": "float32", "filters": 512, "kernel_size": [1, 1], "strides": [1, 1], "padding": "same", "data_format": "channels_last", "dilation_rate": [1, 1], "groups": 1, "activation": "linear", "use_bias": false, "kernel_initializer": {"class_name": "GlorotUniform", "config": {"seed": null}}, "bias_initializer": {"class_name": "Zeros", "config": {}}, "kernel_regularizer": null, "bias_regularizer": null, "activity_regularizer": null, "kernel_constraint": null, "bias_constraint": null}, "name": "conv_pw_8", "inbound_nodes": [[["conv_dw_8_relu", 0, 0, {}]]]}, {"class_name": "BatchNormalization", "config": {"name": "conv_pw_8_bn", "trainable": true, "dtype": "float32", "axis": [3], "momentum": 0.99, "epsilon": 0.001, "center": true, "scale": true, "beta_initializer": {"class_name": "Zeros", "config": {}}, "gamma_initializer": {"class_name": "Ones", "config": {}}, "moving_mean_initializer": {"class_name": "Zeros", "config": {}}, "moving_variance_initializer": {"class_name": "Ones", "config": {}}, "beta_regularizer": null, "gamma_regularizer": null, "beta_constraint": null, "gamma_constraint": null}, "name": "conv_pw_8_bn", "inbound_nodes": [[["conv_pw_8", 0, 0, {}]]]}, {"class_name": "ReLU", "config": {"name": "conv_pw_8_relu", "trainable": true, "dtype": "float32", "max_value": 6.0, "negative_slope": 0.0, "threshold": 0.0}, "name": "conv_pw_8_relu", "inbound_nodes": [[["conv_pw_8_bn", 0, 0, {}]]]}, {"class_name": "DepthwiseConv2D", "config": {"name": "conv_dw_9", "trainable": true, "dtype": "float32", "kernel_size": [3, 3], "strides": [1, 1], "padding": "same", "data_format": "channels_last", "dilation_rate": [1, 1], "groups": 1, "activation": "linear", "use_bias": false, "bias_initializer": {"class_name": "Zeros", "config": {}}, "bias_regularizer": null, "activity_regularizer": null, "bias_constraint": null, "depth_multiplier": 1, "depthwise_initializer": {"class_name": "GlorotUniform", "config": {"seed": null}}, "depthwise_regularizer": null, "depthwise_constraint": null}, "name": "conv_dw_9", "inbound_nodes": [[["conv_pw_8_relu", 0, 0, {}]]]}, {"class_name": "BatchNormalization", "config": {"name": "conv_dw_9_bn", "trainable": true, "dtype": "float32", "axis": [3], "momentum": 0.99, "epsilon": 0.001, "center": true, "scale": true, "beta_initializer": {"class_name": "Zeros", "config": {}}, "gamma_initializer": {"class_name": "Ones", "config": {}}, "moving_mean_initializer": {"class_name": "Zeros", "config": {}}, "moving_variance_initializer": {"class_name": "Ones", "config": {}}, "beta_regularizer": null, "gamma_regularizer": null, "beta_constraint": null, "gamma_constraint": null}, "name": "conv_dw_9_bn", "inbound_nodes": [[["conv_dw_9", 0, 0, {}]]]}, {"class_name": "ReLU", "config": {"name": "conv_dw_9_relu", "trainable": true, "dtype": "float32", "max_value": 6.0, "negative_slope": 0.0, "threshold": 0.0}, "name": "conv_dw_9_relu", "inbound_nodes": [[["conv_dw_9_bn", 0, 0, {}]]]}, {"class_name": "Conv2D", "config": {"name": "conv_pw_9", "trainable": true, "dtype": "float32", "filters": 512, "kernel_size": [1, 1], "strides": [1, 1], "padding": "same", "data_format": "channels_last", "dilation_rate": [1, 1], "groups": 1, "activation": "linear", "use_bias": false, "kernel_initializer": {"class_name": "GlorotUniform", "config": {"seed": null}}, "bias_initializer": {"class_name": "Zeros", "config": {}}, "kernel_regularizer": null, "bias_regularizer": null, "activity_regularizer": null, "kernel_constraint": null, "bias_constraint": null}, "name": "conv_pw_9", "inbound_nodes": [[["conv_dw_9_relu", 0, 0, {}]]]}, {"class_name": "BatchNormalization", "config": {"name": "conv_pw_9_bn", "trainable": true, "dtype": "float32", "axis": [3], "momentum": 0.99, "epsilon": 0.001, "center": true, "scale": true, "beta_initializer": {"class_name": "Zeros", "config": {}}, "gamma_initializer": {"class_name": "Ones", "config": {}}, "moving_mean_initializer": {"class_name": "Zeros", "config": {}}, "moving_variance_initializer": {"class_name": "Ones", "config": {}}, "beta_regularizer": null, "gamma_regularizer": null, "beta_constraint": null, "gamma_constraint": null}, "name": "conv_pw_9_bn", "inbound_nodes": [[["conv_pw_9", 0, 0, {}]]]}, {"class_name": "ReLU", "config": {"name": "conv_pw_9_relu", "trainable": true, "dtype": "float32", "max_value": 6.0, "negative_slope": 0.0, "threshold": 0.0}, "name": "conv_pw_9_relu", "inbound_nodes": [[["conv_pw_9_bn", 0, 0, {}]]]}, {"class_name": "DepthwiseConv2D", "config": {"name": "conv_dw_10", "trainable": true, "dtype": "float32", "kernel_size": [3, 3], "strides": [1, 1], "padding": "same", "data_format": "channels_last", "dilation_rate": [1, 1], "groups": 1, "activation": "linear", "use_bias": false, "bias_initializer": {"class_name": "Zeros", "config": {}}, "bias_regularizer": null, "activity_regularizer": null, "bias_constraint": null, "depth_multiplier": 1, "depthwise_initializer": {"class_name": "GlorotUniform", "config": {"seed": null}}, "depthwise_regularizer": null, "depthwise_constraint": null}, "name": "conv_dw_10", "inbound_nodes": [[["conv_pw_9_relu", 0, 0, {}]]]}, {"class_name": "BatchNormalization", "config": {"name": "conv_dw_10_bn", "trainable": true, "dtype": "float32", "axis": [3], "momentum": 0.99, "epsilon": 0.001, "center": true, "scale": true, "beta_initializer": {"class_name": "Zeros", "config": {}}, "gamma_initializer": {"class_name": "Ones", "config": {}}, "moving_mean_initializer": {"class_name": "Zeros", "config": {}}, "moving_variance_initializer": {"class_name": "Ones", "config": {}}, "beta_regularizer": null, "gamma_regularizer": null, "beta_constraint": null, "gamma_constraint": null}, "name": "conv_dw_10_bn", "inbound_nodes": [[["conv_dw_10", 0, 0, {}]]]}, {"class_name": "ReLU", "config": {"name": "conv_dw_10_relu", "trainable": true, "dtype": "float32", "max_value": 6.0, "negative_slope": 0.0, "threshold": 0.0}, "name": "conv_dw_10_relu", "inbound_nodes": [[["conv_dw_10_bn", 0, 0, {}]]]}, {"class_name": "Conv2D", "config": {"name": "conv_pw_10", "trainable": true, "dtype": "float32", "filters": 512, "kernel_size": [1, 1], "strides": [1, 1], "padding": "same", "data_format": "channels_last", "dilation_rate": [1, 1], "groups": 1, "activation": "linear", "use_bias": false, "kernel_initializer": {"class_name": "GlorotUniform", "config": {"seed": null}}, "bias_initializer": {"class_name": "Zeros", "config": {}}, "kernel_regularizer": null, "bias_regularizer": null, "activity_regularizer": null, "kernel_constraint": null, "bias_constraint": null}, "name": "conv_pw_10", "inbound_nodes": [[["conv_dw_10_relu", 0, 0, {}]]]}, {"class_name": "BatchNormalization", "config": {"name": "conv_pw_10_bn", "trainable": true, "dtype": "float32", "axis": [3], "momentum": 0.99, "epsilon": 0.001, "center": true, "scale": true, "beta_initializer": {"class_name": "Zeros", "config": {}}, "gamma_initializer": {"class_name": "Ones", "config": {}}, "moving_mean_initializer": {"class_name": "Zeros", "config": {}}, "moving_variance_initializer": {"class_name": "Ones", "config": {}}, "beta_regularizer": null, "gamma_regularizer": null, "beta_constraint": null, "gamma_constraint": null}, "name": "conv_pw_10_bn", "inbound_nodes": [[["conv_pw_10", 0, 0, {}]]]}, {"class_name": "ReLU", "config": {"name": "conv_pw_10_relu", "trainable": true, "dtype": "float32", "max_value": 6.0, "negative_slope": 0.0, "threshold": 0.0}, "name": "conv_pw_10_relu", "inbound_nodes": [[["conv_pw_10_bn", 0, 0, {}]]]}, {"class_name": "DepthwiseConv2D", "config": {"name": "conv_dw_11", "trainable": true, "dtype": "float32", "kernel_size": [3, 3], "strides": [1, 1], "padding": "same", "data_format": "channels_last", "dilation_rate": [1, 1], "groups": 1, "activation": "linear", "use_bias": false, "bias_initializer": {"class_name": "Zeros", "config": {}}, "bias_regularizer": null, "activity_regularizer": null, "bias_constraint": null, "depth_multiplier": 1, "depthwise_initializer": {"class_name": "GlorotUniform", "config": {"seed": null}}, "depthwise_regularizer": null, "depthwise_constraint": null}, "name": "conv_dw_11", "inbound_nodes": [[["conv_pw_10_relu", 0, 0, {}]]]}, {"class_name": "BatchNormalization", "config": {"name": "conv_dw_11_bn", "trainable": true, "dtype": "float32", "axis": [3], "momentum": 0.99, "epsilon": 0.001, "center": true, "scale": true, "beta_initializer": {"class_name": "Zeros", "config": {}}, "gamma_initializer": {"class_name": "Ones", "config": {}}, "moving_mean_initializer": {"class_name": "Zeros", "config": {}}, "moving_variance_initializer": {"class_name": "Ones", "config": {}}, "beta_regularizer": null, "gamma_regularizer": null, "beta_constraint": null, "gamma_constraint": null}, "name": "conv_dw_11_bn", "inbound_nodes": [[["conv_dw_11", 0, 0, {}]]]}, {"class_name": "ReLU", "config": {"name": "conv_dw_11_relu", "trainable": true, "dtype": "float32", "max_value": 6.0, "negative_slope": 0.0, "threshold": 0.0}, "name": "conv_dw_11_relu", "inbound_nodes": [[["conv_dw_11_bn", 0, 0, {}]]]}, {"class_name": "Conv2D", "config": {"name": "conv_pw_11", "trainable": true, "dtype": "float32", "filters": 512, "kernel_size": [1, 1], "strides": [1, 1], "padding": "same", "data_format": "channels_last", "dilation_rate": [1, 1], "groups": 1, "activation": "linear", "use_bias": false, "kernel_initializer": {"class_name": "GlorotUniform", "config": {"seed": null}}, "bias_initializer": {"class_name": "Zeros", "config": {}}, "kernel_regularizer": null, "bias_regularizer": null, "activity_regularizer": null, "kernel_constraint": null, "bias_constraint": null}, "name": "conv_pw_11", "inbound_nodes": [[["conv_dw_11_relu", 0, 0, {}]]]}, {"class_name": "BatchNormalization", "config": {"name": "conv_pw_11_bn", "trainable": true, "dtype": "float32", "axis": [3], "momentum": 0.99, "epsilon": 0.001, "center": true, "scale": true, "beta_initializer": {"class_name": "Zeros", "config": {}}, "gamma_initializer": {"class_name": "Ones", "config": {}}, "moving_mean_initializer": {"class_name": "Zeros", "config": {}}, "moving_variance_initializer": {"class_name": "Ones", "config": {}}, "beta_regularizer": null, "gamma_regularizer": null, "beta_constraint": null, "gamma_constraint": null}, "name": "conv_pw_11_bn", "inbound_nodes": [[["conv_pw_11", 0, 0, {}]]]}, {"class_name": "ReLU", "config": {"name": "conv_pw_11_relu", "trainable": true, "dtype": "float32", "max_value": 6.0, "negative_slope": 0.0, "threshold": 0.0}, "name": "conv_pw_11_relu", "inbound_nodes": [[["conv_pw_11_bn", 0, 0, {}]]]}, {"class_name": "ZeroPadding2D", "config": {"name": "conv_pad_12", "trainable": true, "dtype": "float32", "padding": [[0, 1], [0, 1]], "data_format": "channels_last"}, "name": "conv_pad_12", "inbound_nodes": [[["conv_pw_11_relu", 0, 0, {}]]]}, {"class_name": "DepthwiseConv2D", "config": {"name": "conv_dw_12", "trainable": true, "dtype": "float32", "kernel_size": [3, 3], "strides": [2, 2], "padding": "valid", "data_format": "channels_last", "dilation_rate": [1, 1], "groups": 1, "activation": "linear", "use_bias": false, "bias_initializer": {"class_name": "Zeros", "config": {}}, "bias_regularizer": null, "activity_regularizer": null, "bias_constraint": null, "depth_multiplier": 1, "depthwise_initializer": {"class_name": "GlorotUniform", "config": {"seed": null}}, "depthwise_regularizer": null, "depthwise_constraint": null}, "name": "conv_dw_12", "inbound_nodes": [[["conv_pad_12", 0, 0, {}]]]}, {"class_name": "BatchNormalization", "config": {"name": "conv_dw_12_bn", "trainable": true, "dtype": "float32", "axis": [3], "momentum": 0.99, "epsilon": 0.001, "center": true, "scale": true, "beta_initializer": {"class_name": "Zeros", "config": {}}, "gamma_initializer": {"class_name": "Ones", "config": {}}, "moving_mean_initializer": {"class_name": "Zeros", "config": {}}, "moving_variance_initializer": {"class_name": "Ones", "config": {}}, "beta_regularizer": null, "gamma_regularizer": null, "beta_constraint": null, "gamma_constraint": null}, "name": "conv_dw_12_bn", "inbound_nodes": [[["conv_dw_12", 0, 0, {}]]]}, {"class_name": "ReLU", "config": {"name": "conv_dw_12_relu", "trainable": true, "dtype": "float32", "max_value": 6.0, "negative_slope": 0.0, "threshold": 0.0}, "name": "conv_dw_12_relu", "inbound_nodes": [[["conv_dw_12_bn", 0, 0, {}]]]}, {"class_name": "Conv2D", "config": {"name": "conv_pw_12", "trainable": true, "dtype": "float32", "filters": 1024, "kernel_size": [1, 1], "strides": [1, 1], "padding": "same", "data_format": "channels_last", "dilation_rate": [1, 1], "groups": 1, "activation": "linear", "use_bias": false, "kernel_initializer": {"class_name": "GlorotUniform", "config": {"seed": null}}, "bias_initializer": {"class_name": "Zeros", "config": {}}, "kernel_regularizer": null, "bias_regularizer": null, "activity_regularizer": null, "kernel_constraint": null, "bias_constraint": null}, "name": "conv_pw_12", "inbound_nodes": [[["conv_dw_12_relu", 0, 0, {}]]]}, {"class_name": "BatchNormalization", "config": {"name": "conv_pw_12_bn", "trainable": true, "dtype": "float32", "axis": [3], "momentum": 0.99, "epsilon": 0.001, "center": true, "scale": true, "beta_initializer": {"class_name": "Zeros", "config": {}}, "gamma_initializer": {"class_name": "Ones", "config": {}}, "moving_mean_initializer": {"class_name": "Zeros", "config": {}}, "moving_variance_initializer": {"class_name": "Ones", "config": {}}, "beta_regularizer": null, "gamma_regularizer": null, "beta_constraint": null, "gamma_constraint": null}, "name": "conv_pw_12_bn", "inbound_nodes": [[["conv_pw_12", 0, 0, {}]]]}, {"class_name": "ReLU", "config": {"name": "conv_pw_12_relu", "trainable": true, "dtype": "float32", "max_value": 6.0, "negative_slope": 0.0, "threshold": 0.0}, "name": "conv_pw_12_relu", "inbound_nodes": [[["conv_pw_12_bn", 0, 0, {}]]]}, {"class_name": "DepthwiseConv2D", "config": {"name": "conv_dw_13", "trainable": true, "dtype": "float32", "kernel_size": [3, 3], "strides": [1, 1], "padding": "same", "data_format": "channels_last", "dilation_rate": [1, 1], "groups": 1, "activation": "linear", "use_bias": false, "bias_initializer": {"class_name": "Zeros", "config": {}}, "bias_regularizer": null, "activity_regularizer": null, "bias_constraint": null, "depth_multiplier": 1, "depthwise_initializer": {"class_name": "GlorotUniform", "config": {"seed": null}}, "depthwise_regularizer": null, "depthwise_constraint": null}, "name": "conv_dw_13", "inbound_nodes": [[["conv_pw_12_relu", 0, 0, {}]]]}, {"class_name": "BatchNormalization", "config": {"name": "conv_dw_13_bn", "trainable": true, "dtype": "float32", "axis": [3], "momentum": 0.99, "epsilon": 0.001, "center": true, "scale": true, "beta_initializer": {"class_name": "Zeros", "config": {}}, "gamma_initializer": {"class_name": "Ones", "config": {}}, "moving_mean_initializer": {"class_name": "Zeros", "config": {}}, "moving_variance_initializer": {"class_name": "Ones", "config": {}}, "beta_regularizer": null, "gamma_regularizer": null, "beta_constraint": null, "gamma_constraint": null}, "name": "conv_dw_13_bn", "inbound_nodes": [[["conv_dw_13", 0, 0, {}]]]}, {"class_name": "ReLU", "config": {"name": "conv_dw_13_relu", "trainable": true, "dtype": "float32", "max_value": 6.0, "negative_slope": 0.0, "threshold": 0.0}, "name": "conv_dw_13_relu", "inbound_nodes": [[["conv_dw_13_bn", 0, 0, {}]]]}, {"class_name": "Conv2D", "config": {"name": "conv_pw_13", "trainable": true, "dtype": "float32", "filters": 1024, "kernel_size": [1, 1], "strides": [1, 1], "padding": "same", "data_format": "channels_last", "dilation_rate": [1, 1], "groups": 1, "activation": "linear", "use_bias": false, "kernel_initializer": {"class_name": "GlorotUniform", "config": {"seed": null}}, "bias_initializer": {"class_name": "Zeros", "config": {}}, "kernel_regularizer": null, "bias_regularizer": null, "activity_regularizer": null, "kernel_constraint": null, "bias_constraint": null}, "name": "conv_pw_13", "inbound_nodes": [[["conv_dw_13_relu", 0, 0, {}]]]}, {"class_name": "BatchNormalization", "config": {"name": "conv_pw_13_bn", "trainable": true, "dtype": "float32", "axis": [3], "momentum": 0.99, "epsilon": 0.001, "center": true, "scale": true, "beta_initializer": {"class_name": "Zeros", "config": {}}, "gamma_initializer": {"class_name": "Ones", "config": {}}, "moving_mean_initializer": {"class_name": "Zeros", "config": {}}, "moving_variance_initializer": {"class_name": "Ones", "config": {}}, "beta_regularizer": null, "gamma_regularizer": null, "beta_constraint": null, "gamma_constraint": null}, "name": "conv_pw_13_bn", "inbound_nodes": [[["conv_pw_13", 0, 0, {}]]]}, {"class_name": "ReLU", "config": {"name": "conv_pw_13_relu", "trainable": true, "dtype": "float32", "max_value": 6.0, "negative_slope": 0.0, "threshold": 0.0}, "name": "conv_pw_13_relu", "inbound_nodes": [[["conv_pw_13_bn", 0, 0, {}]]]}, {"class_name": "GlobalAveragePooling2D", "config": {"name": "global_average_pooling2d_6", "trainable": true, "dtype": "float32", "data_format": "channels_last", "keepdims": false}, "name": "global_average_pooling2d_6", "inbound_nodes": [[["conv_pw_13_relu", 0, 0, {}]]]}, {"class_name": "Dense", "config": {"name": "dense_47", "trainable": true, "dtype": "float32", "units": 256, "activation": "relu", "use_bias": true, "kernel_initializer": {"class_name": "GlorotUniform", "config": {"seed": null}}, "bias_initializer": {"class_name": "Zeros", "config": {}}, "kernel_regularizer": null, "bias_regularizer": null, "activity_regularizer": null, "kernel_constraint": null, "bias_constraint": null}, "name": "dense_47", "inbound_nodes": [[["global_average_pooling2d_6", 0, 0, {}]]]}, {"class_name": "Dropout", "config": {"name": "dropout_35", "trainable": true, "dtype": "float32", "rate": 0.5, "noise_shape": null, "seed": null}, "name": "dropout_35", "inbound_nodes": [[["dense_47", 0, 0, {}]]]}, {"class_name": "Dense", "config": {"name": "dense_48", "trainable": true, "dtype": "float32", "units": 2, "activation": "softmax", "use_bias": true, "kernel_initializer": {"class_name": "GlorotUniform", "config": {"seed": null}}, "bias_initializer": {"class_name": "Zeros", "config": {}}, "kernel_regularizer": null, "bias_regularizer": null, "activity_regularizer": null, "kernel_constraint": null, "bias_constraint": null}, "name": "dense_48", "inbound_nodes": [[["dropout_35", 0, 0, {}]]]}], "input_layers": [["input_8", 0, 0]], "output_layers": [["dense_48", 0, 0]]}}, "training_config": {"loss": "categorical_crossentropy", "metrics": [[{"class_name": "MeanMetricWrapper", "config": {"name": "accuracy", "dtype": "float32", "fn": "categorical_accuracy"}}]], "weighted_metrics": null, "loss_weights": null, "optimizer_config": {"class_name": "Adam", "config": {"name": "Adam", "learning_rate": 0.0010000000474974513, "decay": 0.0, "beta_1": 0.8999999761581421, "beta_2": 0.9990000128746033, "epsilon": 1e-07, "amsgrad": false}}}}, "weightsManifest": [{"paths": ["group1-shard1of1.bin"], "weights": [{"name": "conv1/kernel", "shape": [3, 3, 3, 32], "dtype": "float32", "quantization": {"dtype": "uint16", "min": -1.0866039414659394, "scale": 3.245337618618779e-05, "original_dtype": "float32"}}, {"name": "conv1_bn/gamma", "shape": [32], "dtype": "float32", "quantization": {"dtype": "uint16", "min": 0.29591104388237, "scale": 1.7872879068047648e-05, "original_dtype": "float32"}}, {"name": "conv1_bn/beta", "shape": [32], "dtype": "float32", "quantization": {"dtype": "uint16", "min": -3.1147844293183553, "scale": 0.00011519173185348947, "original_dtype": "float32"}}, {"name": "conv1_bn/moving_mean", "shape": [32], "dtype": "float32", "quantization": {"dtype": "uint16", "min": -1.9210636076196304, "scale": 5.461601204354439e-05, "original_dtype": "float32"}}, {"name": "conv1_bn/moving_variance", "shape": [32], "dtype": "float32", "quantization": {"dtype": "uint16", "min": 5.422409536103597e-27, "scale": 1.3464428680552637e-05, "original_dtype": "float32"}}, {"name": "conv_dw_1/depthwise_kernel", "shape": [3, 3, 32, 1], "dtype": "float32", "quantization": {"dtype": "uint16", "min": -30.771109868645752, "scale": 0.0008224490797200446, "original_dtype": "float32"}}, {"name": "conv_dw_10/depthwise_kernel", "shape": [3, 3, 512, 1], "dtype": "float32", "quantization": {"dtype": "uint16", "min": -4.472675118373953, "scale": 0.00015210593839054423, "original_dtype": "float32"}}, {"name": "conv_dw_10_bn/gamma", "shape": [512], "dtype": "float32", "quantization": {"dtype": "uint16", "min": 0.3817143738269806, "scale": 0.00011988952147694176, "original_dtype": "float32"}}, {"name": "conv_dw_10_bn/beta", "shape": [512], "dtype": "float32", "quantization": {"dtype": "uint16", "min": -5.7125929293447335, "scale": 0.00014395567193369285, "original_dtype": "float32"}}, {"name": "conv_dw_10_bn/moving_mean", "shape": [512], "dtype": "float32", "quantization": {"dtype": "uint16", "min": -11.59073918587721, "scale": 0.00030388388615901657, "original_dtype": "float32"}}, {"name": "conv_dw_10_bn/moving_variance", "shape": [512], "dtype": "float32", "quantization": {"dtype": "uint16", "min": 0.5189179182052612, "scale": 0.0008896036297958303, "original_dtype": "float32"}}, {"name": "conv_dw_11/depthwise_kernel", "shape": [3, 3, 512, 1], "dtype": "float32", "quantization": {"dtype": "uint16", "min": -4.317024080866288, "scale": 0.00014466754066104647, "original_dtype": "float32"}}, {"name": "conv_dw_11_bn/gamma", "shape": [512], "dtype": "float32", "quantization": {"dtype": "uint16", "min": 0.34211117029190063, "scale": 4.964362950149295e-05, "original_dtype": "float32"}}, {"name": "conv_dw_11_bn/beta", "shape": [512], "dtype": "float32", "quantization": {"dtype": "uint16", "min": -3.7027474782537286, "scale": 0.0001242908085748625, "original_dtype": "float32"}}, {"name": "conv_dw_11_bn/moving_mean", "shape": [512], "dtype": "float32", "quantization": {"dtype": "uint16", "min": -23.470180160004112, "scale": 0.00046937544067364185, "original_dtype": "float32"}}, {"name": "conv_dw_11_bn/moving_variance", "shape": [512], "dtype": "float32", "quantization": {"dtype": "uint16", "min": 0.30472666025161743, "scale": 0.0013901606526137982, "original_dtype": "float32"}}, {"name": "conv_dw_12/depthwise_kernel", "shape": [3, 3, 512, 1], "dtype": "float32", "quantization": {"dtype": "uint16", "min": -1.7362971904703997, "scale": 5.4550793002306065e-05, "original_dtype": "float32"}}, {"name": "conv_dw_12_bn/gamma", "shape": [512], "dtype": "float32", "quantization": {"dtype": "uint16", "min": 0.34591296315193176, "scale": 4.284450034123132e-05, "original_dtype": "float32"}}, {"name": "conv_dw_12_bn/beta", "shape": [512], "dtype": "float32", "quantization": {"dtype": "uint16", "min": -4.018036658523593, "scale": 0.00013588679558062814, "original_dtype": "float32"}}, {"name": "conv_dw_12_bn/moving_mean", "shape": [512], "dtype": "float32", "quantization": {"dtype": "uint16", "min": -11.01309844990785, "scale": 0.0003811683954559184, "original_dtype": "float32"}}, {"name": "conv_dw_12_bn/moving_variance", "shape": [512], "dtype": "float32", "quantization": {"dtype": "uint16", "min": 7.006492321624085e-44, "scale": 0.0005607398922204917, "original_dtype": "float32"}}, {"name": "conv_dw_13/depthwise_kernel", "shape": [3, 3, 1024, 1], "dtype": "float32", "quantization": {"dtype": "uint16", "min": -3.678180251114609, "scale": 9.704705023916543e-05, "original_dtype": "float32"}}, {"name": "conv_dw_13_bn/gamma", "shape": [1024], "dtype": "float32", "quantization": {"dtype": "uint16", "min": 0.48926106095314026, "scale": 4.404403119790451e-05, "original_dtype": "float32"}}, {"name": "conv_dw_13_bn/beta", "shape": [1024], "dtype": "float32", "quantization": {"dtype": "uint16", "min": -3.7833343219364175, "scale": 0.00012363433619608566, "original_dtype": "float32"}}, {"name": "conv_dw_13_bn/moving_mean", "shape": [1024], "dtype": "float32", "quantization": {"dtype": "uint16", "min": -7.702540608664585, "scale": 0.00018744623305423405, "original_dtype": "float32"}}, {"name": "conv_dw_13_bn/moving_variance", "shape": [1024], "dtype": "float32", "quantization": {"dtype": "uint16", "min": 7.006492321624085e-44, "scale": 0.0003624118692298098, "original_dtype": "float32"}}, {"name": "conv_dw_1_bn/gamma", "shape": [32], "dtype": "float32", "quantization": {"dtype": "uint16", "min": -2.6121186309596753, "scale": 8.871480202960452e-05, "original_dtype": "float32"}}, {"name": "conv_dw_1_bn/beta", "shape": [32], "dtype": "float32", "quantization": {"dtype": "uint16", "min": -1.2176013677864368, "scale": 0.00010637789339388754, "original_dtype": "float32"}}, {"name": "conv_dw_1_bn/moving_mean", "shape": [32], "dtype": "float32", "quantization": {"dtype": "uint16", "min": -25.258887656111373, "scale": 0.0005195805252830743, "original_dtype": "float32"}}, {"name": "conv_dw_1_bn/moving_variance", "shape": [32], "dtype": "float32", "quantization": {"dtype": "uint16", "min": 7.006492321624085e-44, "scale": 0.009250783887545777, "original_dtype": "float32"}}, {"name": "conv_dw_2/depthwise_kernel", "shape": [3, 3, 64, 1], "dtype": "float32", "quantization": {"dtype": "uint16", "min": -4.56965375076472, "scale": 0.00015591830731420502, "original_dtype": "float32"}}, {"name": "conv_dw_2_bn/gamma", "shape": [64], "dtype": "float32", "quantization": {"dtype": "uint16", "min": 0.016407037153840065, "scale": 3.291149165029701e-05, "original_dtype": "float32"}}, {"name": "conv_dw_2_bn/beta", "shape": [64], "dtype": "float32", "quantization": {"dtype": "uint16", "min": -1.1641347909688566, "scale": 0.00010369987448502198, "original_dtype": "float32"}}, {"name": "conv_dw_2_bn/moving_mean", "shape": [64], "dtype": "float32", "quantization": {"dtype": "uint16", "min": -49.981274659760786, "scale": 0.0018912958209316526, "original_dtype": "float32"}}, {"name": "conv_dw_2_bn/moving_variance", "shape": [64], "dtype": "float32", "quantization": {"dtype": "uint16", "min": 7.006492321624085e-44, "scale": 0.011271688784797722, "original_dtype": "float32"}}, {"name": "conv_dw_3/depthwise_kernel", "shape": [3, 3, 128, 1], "dtype": "float32", "quantization": {"dtype": "uint16", "min": -14.330303267489638, "scale": 0.00040918003733338013, "original_dtype": "float32"}}, {"name": "conv_dw_3_bn/gamma", "shape": [128], "dtype": "float32", "quantization": {"dtype": "uint16", "min": 0.2859064042568207, "scale": 3.0932454556451833e-05, "original_dtype": "float32"}}, {"name": "conv_dw_3_bn/beta", "shape": [128], "dtype": "float32", "quantization": {"dtype": "uint16", "min": -3.1269289498326613, "scale": 0.00014115148963267555, "original_dtype": "float32"}}, {"name": "conv_dw_3_bn/moving_mean", "shape": [128], "dtype": "float32", "quantization": {"dtype": "uint16", "min": -35.40027176174572, "scale": 0.0008154677791745346, "original_dtype": "float32"}}, {"name": "conv_dw_3_bn/moving_variance", "shape": [128], "dtype": "float32", "quantization": {"dtype": "uint16", "min": 0.695940375328064, "scale": 0.0019134681794357271, "original_dtype": "float32"}}, {"name": "conv_dw_4/depthwise_kernel", "shape": [3, 3, 128, 1], "dtype": "float32", "quantization": {"dtype": "uint16", "min": -3.527238841656008, "scale": 0.00010779410921264006, "original_dtype": "float32"}}, {"name": "conv_dw_4_bn/gamma", "shape": [128], "dtype": "float32", "quantization": {"dtype": "uint16", "min": 0.5225025415420532, "scale": 4.171671561411919e-05, "original_dtype": "float32"}}, {"name": "conv_dw_4_bn/beta", "shape": [128], "dtype": "float32", "quantization": {"dtype": "uint16", "min": -2.286018373080901, "scale": 0.00012401097825110672, "original_dtype": "float32"}}, {"name": "conv_dw_4_bn/moving_mean", "shape": [128], "dtype": "float32", "quantization": {"dtype": "uint16", "min": -59.93483414202122, "scale": 0.0013618767557095415, "original_dtype": "float32"}}, {"name": "conv_dw_4_bn/moving_variance", "shape": [128], "dtype": "float32", "quantization": {"dtype": "uint16", "min": 7.006492321624085e-44, "scale": 0.005121122491053206, "original_dtype": "float32"}}, {"name": "conv_dw_5/depthwise_kernel", "shape": [3, 3, 256, 1], "dtype": "float32", "quantization": {"dtype": "uint16", "min": -7.31450044383553, "scale": 0.0002614562640776212, "original_dtype": "float32"}}, {"name": "conv_dw_5_bn/gamma", "shape": [256], "dtype": "float32", "quantization": {"dtype": "uint16", "min": 0.4835699200630188, "scale": 3.614256399632992e-05, "original_dtype": "float32"}}, {"name": "conv_dw_5_bn/beta", "shape": [256], "dtype": "float32", "quantization": {"dtype": "uint16", "min": -2.7577509734544545, "scale": 0.00010473797848288852, "original_dtype": "float32"}}, {"name": "conv_dw_5_bn/moving_mean", "shape": [256], "dtype": "float32", "quantization": {"dtype": "uint16", "min": -21.042699090979905, "scale": 0.0005410546922498176, "original_dtype": "float32"}}, {"name": "conv_dw_5_bn/moving_variance", "shape": [256], "dtype": "float32", "quantization": {"dtype": "uint16", "min": 0.5263200998306274, "scale": 0.001967973089549201, "original_dtype": "float32"}}, {"name": "conv_dw_6/depthwise_kernel", "shape": [3, 3, 256, 1], "dtype": "float32", "quantization": {"dtype": "uint16", "min": -2.635762140481125, "scale": 7.808508785309213e-05, "original_dtype": "float32"}}, {"name": "conv_dw_6_bn/gamma", "shape": [256], "dtype": "float32", "quantization": {"dtype": "uint16", "min": 0.5094314813613892, "scale": 3.7075897153349556e-05, "original_dtype": "float32"}}, {"name": "conv_dw_6_bn/beta", "shape": [256], "dtype": "float32", "quantization": {"dtype": "uint16", "min": -1.8144345428265687, "scale": 0.00010316907618278095, "original_dtype": "float32"}}, {"name": "conv_dw_6_bn/moving_mean", "shape": [256], "dtype": "float32", "quantization": {"dtype": "uint16", "min": -26.250196589930265, "scale": 0.0005995796484760573, "original_dtype": "float32"}}, {"name": "conv_dw_6_bn/moving_variance", "shape": [256], "dtype": "float32", "quantization": {"dtype": "uint16", "min": 7.006492321624085e-44, "scale": 0.002141106249657268, "original_dtype": "float32"}}, {"name": "conv_dw_7/depthwise_kernel", "shape": [3, 3, 512, 1], "dtype": "float32", "quantization": {"dtype": "uint16", "min": -5.281874227425577, "scale": 0.00016324754218592419, "original_dtype": "float32"}}, {"name": "conv_dw_7_bn/gamma", "shape": [512], "dtype": "float32", "quantization": {"dtype": "uint16", "min": 0.5387366414070129, "scale": 4.353765820332757e-05, "original_dtype": "float32"}}, {"name": "conv_dw_7_bn/beta", "shape": [512], "dtype": "float32", "quantization": {"dtype": "uint16", "min": -3.5088410986727667, "scale": 0.00011950686620594553, "original_dtype": "float32"}}, {"name": "conv_dw_7_bn/moving_mean", "shape": [512], "dtype": "float32", "quantization": {"dtype": "uint16", "min": -9.598280171168572, "scale": 0.0003394377116090311, "original_dtype": "float32"}}, {"name": "conv_dw_7_bn/moving_variance", "shape": [512], "dtype": "float32", "quantization": {"dtype": "uint16", "min": 0.5514674782752991, "scale": 0.0006812930634631676, "original_dtype": "float32"}}, {"name": "conv_dw_8/depthwise_kernel", "shape": [3, 3, 512, 1], "dtype": "float32", "quantization": {"dtype": "uint16", "min": -4.152213133042652, "scale": 0.0001409249637877631, "original_dtype": "float32"}}, {"name": "conv_dw_8_bn/gamma", "shape": [512], "dtype": "float32", "quantization": {"dtype": "uint16", "min": 0.4735161066055298, "scale": 3.946997112164447e-05, "original_dtype": "float32"}}, {"name": "conv_dw_8_bn/beta", "shape": [512], "dtype": "float32", "quantization": {"dtype": "uint16", "min": -2.6206278269447543, "scale": 9.302242747922597e-05, "original_dtype": "float32"}}, {"name": "conv_dw_8_bn/moving_mean", "shape": [512], "dtype": "float32", "quantization": {"dtype": "uint16", "min": -13.418487521877566, "scale": 0.0003461584852408824, "original_dtype": "float32"}}, {"name": "conv_dw_8_bn/moving_variance", "shape": [512], "dtype": "float32", "quantization": {"dtype": "uint16", "min": 0.20542210340499878, "scale": 0.0005790978108498691, "original_dtype": "float32"}}, {"name": "conv_dw_9/depthwise_kernel", "shape": [3, 3, 512, 1], "dtype": "float32", "quantization": {"dtype": "uint16", "min": -4.095414816069914, "scale": 0.00013501515893811735, "original_dtype": "float32"}}, {"name": "conv_dw_9_bn/gamma", "shape": [512], "dtype": "float32", "quantization": {"dtype": "uint16", "min": 0.45692941546440125, "scale": 3.825149383699174e-05, "original_dtype": "float32"}}, {"name": "conv_dw_9_bn/beta", "shape": [512], "dtype": "float32", "quantization": {"dtype": "uint16", "min": -2.6368900485266864, "scale": 8.635065816965276e-05, "original_dtype": "float32"}}, {"name": "conv_dw_9_bn/moving_mean", "shape": [512], "dtype": "float32", "quantization": {"dtype": "uint16", "min": -11.65776550608459, "scale": 0.00035905400720970157, "original_dtype": "float32"}}, {"name": "conv_dw_9_bn/moving_variance", "shape": [512], "dtype": "float32", "quantization": {"dtype": "uint16", "min": 0.12992258369922638, "scale": 0.0006483053744062093, "original_dtype": "float32"}}, {"name": "conv_pw_1/kernel", "shape": [1, 1, 32, 64], "dtype": "float32", "quantization": {"dtype": "uint16", "min": -1.738980962499434, "scale": 5.3953676972462344e-05, "original_dtype": "float32"}}, {"name": "conv_pw_10/kernel", "shape": [1, 1, 512, 512], "dtype": "float32", "quantization": {"dtype": "uint16", "min": -0.7489713701720168, "scale": 2.6317557544960005e-05, "original_dtype": "float32"}}, {"name": "conv_pw_10_bn/gamma", "shape": [512], "dtype": "float32", "quantization": {"dtype": "uint16", "min": 0.30794185400009155, "scale": 6.531781477959813e-05, "original_dtype": "float32"}}, {"name": "conv_pw_10_bn/beta", "shape": [512], "dtype": "float32", "quantization": {"dtype": "uint16", "min": -2.126447689115769, "scale": 8.525570079046465e-05, "original_dtype": "float32"}}, {"name": "conv_pw_10_bn/moving_mean", "shape": [512], "dtype": "float32", "quantization": {"dtype": "uint16", "min": -7.114195843402132, "scale": 0.00020404393516325738, "original_dtype": "float32"}}, {"name": "conv_pw_10_bn/moving_variance", "shape": [512], "dtype": "float32", "quantization": {"dtype": "uint16", "min": 1.5152262449264526, "scale": 0.0001282270471100368, "original_dtype": "float32"}}, {"name": "conv_pw_11/kernel", "shape": [1, 1, 512, 512], "dtype": "float32", "quantization": {"dtype": "uint16", "min": -0.47696232554513657, "scale": 1.6621212905810446e-05, "original_dtype": "float32"}}, {"name": "conv_pw_11_bn/gamma", "shape": [512], "dtype": "float32", "quantization": {"dtype": "uint16", "min": 0.1773132085800171, "scale": 3.989236145822809e-05, "original_dtype": "float32"}}, {"name": "conv_pw_11_bn/beta", "shape": [512], "dtype": "float32", "quantization": {"dtype": "uint16", "min": -1.775696248888851, "scale": 6.635140306736608e-05, "original_dtype": "float32"}}, {"name": "conv_pw_11_bn/moving_mean", "shape": [512], "dtype": "float32", "quantization": {"dtype": "uint16", "min": -5.3460868964235635, "scale": 0.00019487084990973112, "original_dtype": "float32"}}, {"name": "conv_pw_11_bn/moving_variance", "shape": [512], "dtype": "float32", "quantization": {"dtype": "uint16", "min": 1.2176798557284552e-23, "scale": 0.00016141633761141024, "original_dtype": "float32"}}, {"name": "conv_pw_12/kernel", "shape": [1, 1, 512, 1024], "dtype": "float32", "quantization": {"dtype": "uint16", "min": -0.8515123204525725, "scale": 2.5310989847588505e-05, "original_dtype": "float32"}}, {"name": "conv_pw_12_bn/gamma", "shape": [1024], "dtype": "float32", "quantization": {"dtype": "uint16", "min": 0.3574865162372589, "scale": 4.799027068942201e-05, "original_dtype": "float32"}}, {"name": "conv_pw_12_bn/beta", "shape": [1024], "dtype": "float32", "quantization": {"dtype": "uint16", "min": -1.7620354652714019, "scale": 6.393684332782038e-05, "original_dtype": "float32"}}, {"name": "conv_pw_12_bn/moving_mean", "shape": [1024], "dtype": "float32", "quantization": {"dtype": "uint16", "min": -11.772117405850164, "scale": 0.00032470327970901016, "original_dtype": "float32"}}, {"name": "conv_pw_12_bn/moving_variance", "shape": [1024], "dtype": "float32", "quantization": {"dtype": "uint16", "min": 3.04282525554183e-14, "scale": 0.00023512931585657456, "original_dtype": "float32"}}, {"name": "conv_pw_13/kernel", "shape": [1, 1, 1024, 1024], "dtype": "float32", "quantization": {"dtype": "uint16", "min": -0.8054437996016547, "scale": 1.7250515080029443e-05, "original_dtype": "float32"}}, {"name": "conv_pw_13_bn/gamma", "shape": [1024], "dtype": "float32", "quantization": {"dtype": "uint16", "min": 4.477500915527344, "scale": 5.3822709555992264e-05, "original_dtype": "float32"}}, {"name": "conv_pw_13_bn/beta", "shape": [1024], "dtype": "float32", "quantization": {"dtype": "uint16", "min": -6.822098731994629, "scale": 6.659268659849394e-05, "original_dtype": "float32"}}, {"name": "conv_pw_13_bn/moving_mean", "shape": [1024], "dtype": "float32", "quantization": {"dtype": "uint16", "min": -10.236173587588647, "scale": 0.0003331437085070835, "original_dtype": "float32"}}, {"name": "conv_pw_13_bn/moving_variance", "shape": [1024], "dtype": "float32", "quantization": {"dtype": "uint16", "min": 7.677150726318359, "scale": 0.0012687765761608479, "original_dtype": "float32"}}, {"name": "conv_pw_1_bn/gamma", "shape": [64], "dtype": "float32", "quantization": {"dtype": "uint16", "min": 0.322327196598053, "scale": 0.0001892654093777805, "original_dtype": "float32"}}, {"name": "conv_pw_1_bn/beta", "shape": [64], "dtype": "float32", "quantization": {"dtype": "uint16", "min": -4.0454954048820895, "scale": 0.00015198915748890145, "original_dtype": "float32"}}, {"name": "conv_pw_1_bn/moving_mean", "shape": [64], "dtype": "float32", "quantization": {"dtype": "uint16", "min": -7.963527994526236, "scale": 0.0002667133764661476, "original_dtype": "float32"}}, {"name": "conv_pw_1_bn/moving_variance", "shape": [64], "dtype": "float32", "quantization": {"dtype": "uint16", "min": 4.646284112270038e-26, "scale": 5.0033089260928754e-05, "original_dtype": "float32"}}, {"name": "conv_pw_2/kernel", "shape": [1, 1, 64, 128], "dtype": "float32", "quantization": {"dtype": "uint16", "min": -1.199561378300449, "scale": 3.9359562237111564e-05, "original_dtype": "float32"}}, {"name": "conv_pw_2_bn/gamma", "shape": [128], "dtype": "float32", "quantization": {"dtype": "uint16", "min": 0.10886318236589432, "scale": 5.896685631767949e-05, "original_dtype": "float32"}}, {"name": "conv_pw_2_bn/beta", "shape": [128], "dtype": "float32", "quantization": {"dtype": "uint16", "min": -3.117692993688958, "scale": 0.00011605900285481733, "original_dtype": "float32"}}, {"name": "conv_pw_2_bn/moving_mean", "shape": [128], "dtype": "float32", "quantization": {"dtype": "uint16", "min": -7.1366934779871425, "scale": 0.00021824083294049546, "original_dtype": "float32"}}, {"name": "conv_pw_2_bn/moving_variance", "shape": [128], "dtype": "float32", "quantization": {"dtype": "uint16", "min": 0.29996150732040405, "scale": 7.922795541573691e-05, "original_dtype": "float32"}}, {"name": "conv_pw_3/kernel", "shape": [1, 1, 128, 128], "dtype": "float32", "quantization": {"dtype": "uint16", "min": -1.1822150781679055, "scale": 3.492511309210947e-05, "original_dtype": "float32"}}, {"name": "conv_pw_3_bn/gamma", "shape": [128], "dtype": "float32", "quantization": {"dtype": "uint16", "min": 0.06930137425661087, "scale": 5.950573378463463e-05, "original_dtype": "float32"}}, {"name": "conv_pw_3_bn/beta", "shape": [128], "dtype": "float32", "quantization": {"dtype": "uint16", "min": -3.180033613315407, "scale": 0.0001488292045357517, "original_dtype": "float32"}}, {"name": "conv_pw_3_bn/moving_mean", "shape": [128], "dtype": "float32", "quantization": {"dtype": "uint16", "min": -8.285248424838244, "scale": 0.00021732369176472152, "original_dtype": "float32"}}, {"name": "conv_pw_3_bn/moving_variance", "shape": [128], "dtype": "float32", "quantization": {"dtype": "uint16", "min": 5.363405143953636e-25, "scale": 7.719284538419803e-05, "original_dtype": "float32"}}, {"name": "conv_pw_4/kernel", "shape": [1, 1, 128, 256], "dtype": "float32", "quantization": {"dtype": "uint16", "min": -0.853730598248742, "scale": 3.285095421920663e-05, "original_dtype": "float32"}}, {"name": "conv_pw_4_bn/gamma", "shape": [256], "dtype": "float32", "quantization": {"dtype": "uint16", "min": 0.3655056357383728, "scale": 4.500490836750827e-05, "original_dtype": "float32"}}, {"name": "conv_pw_4_bn/beta", "shape": [256], "dtype": "float32", "quantization": {"dtype": "uint16", "min": -1.791899909769051, "scale": 7.979248830071029e-05, "original_dtype": "float32"}}, {"name": "conv_pw_4_bn/moving_mean", "shape": [256], "dtype": "float32", "quantization": {"dtype": "uint16", "min": -7.567425521014711, "scale": 0.00024370171071153908, "original_dtype": "float32"}}, {"name": "conv_pw_4_bn/moving_variance", "shape": [256], "dtype": "float32", "quantization": {"dtype": "uint16", "min": 0.7084339261054993, "scale": 7.460131619372593e-05, "original_dtype": "float32"}}, {"name": "conv_pw_5/kernel", "shape": [1, 1, 256, 256], "dtype": "float32", "quantization": {"dtype": "uint16", "min": -1.048104703889301, "scale": 3.285903702195507e-05, "original_dtype": "float32"}}, {"name": "conv_pw_5_bn/gamma", "shape": [256], "dtype": "float32", "quantization": {"dtype": "uint16", "min": 0.11826977133750916, "scale": 4.189835948439133e-05, "original_dtype": "float32"}}, {"name": "conv_pw_5_bn/beta", "shape": [256], "dtype": "float32", "quantization": {"dtype": "uint16", "min": -2.481001398206312, "scale": 8.260642599075422e-05, "original_dtype": "float32"}}, {"name": "conv_pw_5_bn/moving_mean", "shape": [256], "dtype": "float32", "quantization": {"dtype": "uint16", "min": -6.958537888652429, "scale": 0.0002485192103090153, "original_dtype": "float32"}}, {"name": "conv_pw_5_bn/moving_variance", "shape": [256], "dtype": "float32", "quantization": {"dtype": "uint16", "min": 6.763230438621204e-25, "scale": 8.374158364916826e-05, "original_dtype": "float32"}}, {"name": "conv_pw_6/kernel", "shape": [1, 1, 256, 512], "dtype": "float32", "quantization": {"dtype": "uint16", "min": -0.8323935472565966, "scale": 2.548975830648569e-05, "original_dtype": "float32"}}, {"name": "conv_pw_6_bn/gamma", "shape": [512], "dtype": "float32", "quantization": {"dtype": "uint16", "min": 0.3384489417076111, "scale": 3.248118623003149e-05, "original_dtype": "float32"}}, {"name": "conv_pw_6_bn/beta", "shape": [512], "dtype": "float32", "quantization": {"dtype": "uint16", "min": -1.2733626505871463, "scale": 5.4268779857958846e-05, "original_dtype": "float32"}}, {"name": "conv_pw_6_bn/moving_mean", "shape": [512], "dtype": "float32", "quantization": {"dtype": "uint16", "min": -7.253003240033655, "scale": 0.00022706080330694222, "original_dtype": "float32"}}, {"name": "conv_pw_6_bn/moving_variance", "shape": [512], "dtype": "float32", "quantization": {"dtype": "uint16", "min": 1.4905415773391724, "scale": 9.46840469029727e-05, "original_dtype": "float32"}}, {"name": "conv_pw_7/kernel", "shape": [1, 1, 512, 512], "dtype": "float32", "quantization": {"dtype": "uint16", "min": -0.7824652607120619, "scale": 2.3691684401007114e-05, "original_dtype": "float32"}}, {"name": "conv_pw_7_bn/gamma", "shape": [512], "dtype": "float32", "quantization": {"dtype": "uint16", "min": 0.19278064370155334, "scale": 2.479804201548838e-05, "original_dtype": "float32"}}, {"name": "conv_pw_7_bn/beta", "shape": [512], "dtype": "float32", "quantization": {"dtype": "uint16", "min": -1.3430645102684053, "scale": 5.761999700838326e-05, "original_dtype": "float32"}}, {"name": "conv_pw_7_bn/moving_mean", "shape": [512], "dtype": "float32", "quantization": {"dtype": "uint16", "min": -8.69518308518016, "scale": 0.00021898363223563, "original_dtype": "float32"}}, {"name": "conv_pw_7_bn/moving_variance", "shape": [512], "dtype": "float32", "quantization": {"dtype": "uint16", "min": 2.0401623249053955, "scale": 0.0001184016713981835, "original_dtype": "float32"}}, {"name": "conv_pw_8/kernel", "shape": [1, 1, 512, 512], "dtype": "float32", "quantization": {"dtype": "uint16", "min": -0.6263480795251065, "scale": 2.1418002992925268e-05, "original_dtype": "float32"}}, {"name": "conv_pw_8_bn/gamma", "shape": [512], "dtype": "float32", "quantization": {"dtype": "uint16", "min": 0.3633061647415161, "scale": 3.339819370804421e-05, "original_dtype": "float32"}}, {"name": "conv_pw_8_bn/beta", "shape": [512], "dtype": "float32", "quantization": {"dtype": "uint16", "min": -1.978502703155034, "scale": 6.129380411893287e-05, "original_dtype": "float32"}}, {"name": "conv_pw_8_bn/moving_mean", "shape": [512], "dtype": "float32", "quantization": {"dtype": "uint16", "min": -5.573951589058, "scale": 0.00017457878943428963, "original_dtype": "float32"}}, {"name": "conv_pw_8_bn/moving_variance", "shape": [512], "dtype": "float32", "quantization": {"dtype": "uint16", "min": 1.6676708459854126, "scale": 0.00010983313467861486, "original_dtype": "float32"}}, {"name": "conv_pw_9/kernel", "shape": [1, 1, 512, 512], "dtype": "float32", "quantization": {"dtype": "uint16", "min": -0.5509283639768573, "scale": 2.19371013767961e-05, "original_dtype": "float32"}}, {"name": "conv_pw_9_bn/gamma", "shape": [512], "dtype": "float32", "quantization": {"dtype": "uint16", "min": 0.2030264139175415, "scale": 6.065035226498405e-05, "original_dtype": "float32"}}, {"name": "conv_pw_9_bn/beta", "shape": [512], "dtype": "float32", "quantization": {"dtype": "uint16", "min": -1.875195845719414, "scale": 6.607455411273481e-05, "original_dtype": "float32"}}, {"name": "conv_pw_9_bn/moving_mean", "shape": [512], "dtype": "float32", "quantization": {"dtype": "uint16", "min": -5.66580380265642, "scale": 0.00017338812628626924, "original_dtype": "float32"}}, {"name": "conv_pw_9_bn/moving_variance", "shape": [512], "dtype": "float32", "quantization": {"dtype": "uint16", "min": 1.3898844718933105, "scale": 0.00012674750766592622, "original_dtype": "float32"}}, {"name": "dense_47/kernel", "shape": [1024, 256], "dtype": "float32", "quantization": {"dtype": "uint16", "min": -0.27683234095637094, "scale": 7.032627297946624e-06, "original_dtype": "float32"}}, {"name": "dense_47/bias", "shape": [256], "dtype": "float32", "quantization": {"dtype": "uint16", "min": -0.08661690069693781, "scale": 2.999823394643548e-06, "original_dtype": "float32"}}, {"name": "dense_48/kernel", "shape": [256, 2], "dtype": "float32", "quantization": {"dtype": "uint16", "min": -0.15151871240679254, "scale": 4.533366616006718e-06, "original_dtype": "float32"}}, {"name": "dense_48/bias", "shape": [2], "dtype": "float32", "quantization": {"dtype": "uint16", "min": -0.1717097262125353, "scale": 5.240324906538142e-06, "original_dtype": "float32"}}]}]}